docs/mnist_example/mnist.onnx (onnx, 115068 bytes, 4 tensors)

fc1.weight f4 [128, 196]
0.032337476 -0.03599404 -0.018315183 0.028799465 -0.0718961 0.038362782 -0.018979827 0.031933717
0.0057513993 -0.012524145 0.015880771 -0.0009932788 0.021620685 -0.032302808 -0.009674793 -0.010784522
0.005952138 -0.00823097 0.051347002 0.0054943874 -0.056500126 -0.07010208 -0.038006246 -0.04228353
-0.027969442 -0.0064060995 0.03286385 0.03434262 -0.07429212 0.03891915 0.014193592 0.044646498
0.041737087 -0.037033264 -0.04603766 -0.03308239 0.079516225 -0.014612385 0.04425581 0.015281429
0.087318614 -0.032485753 0.048827846 -0.0018625449 -0.03982351 0.06546239 -0.0061173514 0.006446299
-0.0919725 -0.13181524 -0.1225044 -0.03707289 0.051687375 0.09894507 0.16805148 0.064837575
-0.007579943 -0.042447586 0.049419828 0.07847696 -0.0054952186 0.07516615 -0.009138831 -0.0687631
-0.063075766 0.031632584 0.037449487 0.12673661 0.09189567 -0.03355197 0.03569415 -0.008787117
0.0489248 0.06952721 0.13096036 0.1579077 0.19989567 0.0596969 -0.015454512 0.021808553
-0.08871906 -0.037974264 0.05878901 -0.006147713 0.038397953 -0.04044056 -0.0373269 0.13153467
0.07651577 0.17955942 0.11459621 -0.074600905 0.03514051 -0.021976162 -0.112947516 -0.038774345
0.025799807 0.009184048 -0.034621425 -0.025489768 0.048863977 -0.01595357 0.047753442 0.027135618
-0.124668814 -0.113032036 0.029409004 0.011668492 0.102150984 0.07371271 0.019200284 0.04089408
0.063059956 -0.05800249 -0.03054067 0.0062091965 0.0038880096 -0.009593194 -0.10299096 -0.13684109
-0.08036734 0.05699676 0.14441133 -0.016726013 0.0043890886 -0.05637491 -0.07149701 -0.03022316
0.01167335 0.0754045 -0.0282716 0.045434736 0.054944865 -0.031884354 0.0047485456 0.069643475
0.040916774 -0.008098437 -0.09608857 -0.069350034 -0.037173744 -0.033198427 -0.089720495 0.0045930566
0.02080666 0.03720818 0.06352176 -0.009541642 0.051794663 0.043573786 -0.04623302 0.037126824
-0.036218494 -0.0084006805 -0.071897104 -0.0631219 -0.097658366 -0.0979484 0.0015678741 0.008017407
0.056251463 0.14929916 0.10962394 0.07506338 -0.04058116 -0.013267389 -0.04488199 -0.020760424
-0.061389778 -0.037216555 -0.035585113 0.016874261 0.019997125 0.03324964 0.11743604 0.15765703
0.106216185 0.004111042 -0.061592426 0.036589116 -0.02590638 -0.010241693 -0.06600268 -0.018576233
-0.051594567 0.064295284 -0.060920864 -0.058066376 -0.021216376 -0.044519052 0.016360335 -0.049210407
-0.045738794 0.0004523993 0.047226273 -0.054711577 0.025803924 0.03814927 0.062131792 -0.057734378
0.009476543 -0.061174363 0.051969327 -0.035291333 0.035285756 -0.0056149224 -0.013302588 -0.010018527
0.0044030733 0.025931772 0.003716315 0.014211487 -0.071788706 0.04414745 0.048918918 0.038122922
0.042896338 -0.051503416 -0.043419965 0.031959843 -0.07824172 0.055656157 -0.06376271 -0.058043193
0.027180474 -0.057670545 -0.01819109 0.037476633 0.012674415 0.021975182 -0.031969424 -0.096324876
-0.013053529 -0.0934102 -0.07201939 -0.0365225 -0.07848659 0.0402249 0.037219126 -0.056988697
-0.04489114 -0.0015884005 0.024044378 0.03282187 0.034225248 0.106511526 0.031668913 -0.019230634
-0.040364135 -0.0024904434 0.023780601 -0.033627357 -0.003903478 0.052453525 0.0508693 -0.0064978693
00000000: 4d74 043d 7d6e 13bd b909 96bc dbec eb3c
00000010: 433e 93bd 4b22 1d3d 957b 9bbc eecc 023d
00000020: 3c76 bc3b 1232 4dbc 6418 823c e830 82ba
00000030: dd1d b13c f34f 04bd 0683 1ebc 90b1 30bc
00000040: 270a c33b 31db 06bc 3c51 523d 430a b43b
00000050: ad6c 67bd ae91 8fbd 70ac 1bbd 7f31 2dbd
00000060: 2c20 e5bc 42ea d1bb 3f9c 063d d9aa 0c3d
00000070: 7826 98bd b069 1f3d 3d8c 683c 3fdf 363d
00000080: 82f4 2a3d 31b0 17bd fc91 3cbd 6681 07bd
00000090: 67d9 a23d c968 6fbc 9545 353d f55e 7a3c
000000a0: 1ad4 b23d c80f 05bd b5ff 473d a320 f4ba
000000b0: fa1d 23bd 2511 863d 1074 c8bb 7a3b d33b
000000c0: 145c bcbd 93fa 06be 96e3 fabd bed9 17bd
000000d0: 24b6 533d b6a3 ca3d b015 2c3e 90c9 843d
000000e0: 2c61 f8bb 85dd 2dbd 726c 4a3d 87b8 a03d
000000f0: 3c11 b4bb b6f0 993d 09bb 15bc abd3 8cbd
00000100: de2d 81bd 2b91 013d a264 193d 3ec7 013e
00000110: cc33 bc3d ca6d 09bd 0734 123d d7f7 0fbc
00000120: 5f65 483d 4864 8e3d 791a 063e 8eb2 213e
00000130: 73b1 4c3e bd84 743d ec34 7dbc daa7 b23c
00000140: 57b2 b5bd e78a 1bbd bfcc 703d c172 c9bb
00000150: 2c47 1d3d 00a5 25bd 17e4 18bd 06b1 063e
00000160: 4db4 9c3d 6dde 373e 6bb1 ea3d 5cc8 98bd
00000170: 7fef 0f3d 5a07 b4bc 0751 e7bd d9d1 1ebd
00000180: 1e5a d33c b078 163c 32cf 0dbd ebcf d0bc
00000190: 9825 483d 10b1 82bc 1d99 433d 844b de3c
000001a0: 5d52 ffbd 577d e7bd 27eb f03c 342d 3f3c
000001b0: 8934 d13d b0f6 963d ea49 9d3c 8d80 273d
000001c0: 9425 813d 0594 6dbd 6d30 fabc 8476 cb3b
000001d0: facd 7e3b c62c 1dbc edec d2bd 1220 0cbe
000001e0: a297 a4bd 6f75 693d 90e0 133e fe04 89bc
000001f0: 58d2 8f3b 61e9 66bd 066d 92bd 8f96 f7bc
00000200: 9441 3f3c ad6d 9a3d d899 e7bc c619 3a3d
00000210: de0d 613d 2b99 02bd b099 9b3b 3da1 8e3d
00000220: 5998 273d 4faf 04bc 16ca c4bd 6407 8ebd
00000230: 7f43 18bd 13fb 07bd 61bf b7bd 5a81 963b
00000240: bb72 aa3c 9b67 183d b217 823d 8c54 1cbc
00000250: a426 543d 6d7a 323d d65e 3dbd 4c12 183d
00000260: d859 14bd 02a3 09bc ca3e 93bd 0e46 81bd
00000270: 1c01 c8bd 2c99 c8bd 2081 cd3a 715b 033c
00000280: ef67 663d e1e1 183e 8482 e03d d4ba 993d
00000290: 6e38 26bd 765f 59bc 2dd6 37bd c411 aabc
000002a0: d973 7bbd 6370 18bd b2c1 11bd e43b 8a3c
000002b0: 03d1 a33c c630 083d 4e82 f03d d870 213e
000002c0: df87 d93d ebb5 863b 5748 7cbd 78de 153d
000002d0: 9e39 d4bc c6cc 27bc 6a2c 87bd 2f2d 98bc
000002e0: d354 53bd 3fad 833d 2888 79bd 02d7 6dbd
000002f0: f7cd adbc 9c59 36bd 1c06 863c da90 49bd
00000300: 9a58 3bbd 0230 ed39 5670 413d 3f19 60bd
00000310: c062 d33c 6942 1c3d e87d 7e3d e27a 6cbd
00000320: 8143 1b3c f891 7abd cadd 543d a58d 10bd
00000330: cc87 103d 62fd b7bb 19f3 59bc bf24 24bc
00000340: a847 903b de6e d43c 6b8d 733b 4cd7 683c
00000350: f505 93bd f5d3 343d 345f 483d c826 1c3d
00000360: 12b4 2f3d 3ff5 52bd 22d9 31bd 53e8 023d
00000370: 323d a0bd b6f7 633d 0696 82bd b3be 6dbd
00000380: 96a9 de3c f337 6cbd 7b05 95bc 1981 193d
00000390: 59a8 4f3c 4c05 b43c 5ff2 02bd fa45 c5bd
000003a0: 78de 55bc d94d bfbd e77e 93bd 9e98 15bd
000003b0: 94bd a0bd ddc2 243d 1573 183d fb6c 69bd
000003c0: c6df 37bd e031 d0ba b7f8 c43c 3a70 063d
000003d0: c62f 0c3d b722 da3d 43b7 013d 9089 9dbc
000003e0: dd54 25bd b536 23bb 89cf c23c d7bc 09bd
000003f0: 7ed1 7fbb 82d9 563d 545c 503d 14ec d4bb

fc1.bias f4 [128]
-0.053751756 -0.053034775 -0.027167888 -0.015968528 -0.06437915 0.04405904 0.02849169 -0.014441648
0.082261145 -0.043966766 0.057308726 0.06448782 0.011044285 0.1156469 0.037103597 0.023560103
0.020640366 0.042406872 -0.03531104 0.007360746 0.06497921 0.021214856 -0.03136656 0.021062043
-0.036315966 -0.017813029 -0.009344499 -0.03642009 0.03494494 0.093517795 0.057004623 0.058411546
-0.03372597 -0.056067515 0.03242644 0.033249147 -0.006810662 0.050303143 0.035300583 -0.032370325
-0.036746476 -0.058953207 0.008777122 0.033339217 -0.019914098 -0.0013603696 0.009390397 -0.052663628
-0.018732183 0.08738528 -0.036342867 0.0037984771 -0.011485516 -0.02339343 -0.054774754 -0.010331313
-0.0067981062 -0.05909882 0.06717363 0.049985584 0.049124204 -0.015807342 0.031280722 0.035609934
0.0029731318 -0.011189004 0.044043075 0.095043994 0.022299834 -0.0070411037 0.005966624 0.06995072
0.034799237 0.04562783 0.07443481 0.035811756 0.05743279 0.028820386 0.053007245 0.03491994
0.036773898 -0.0012942594 0.08691375 -0.018428521 0.023707207 0.034491695 -0.03179861 -0.028290264
0.016881147 0.032316037 -0.040441845 -0.013571718 0.0658635 -0.0015235562 0.054702617 -0.056210723
-0.036467314 -0.049221016 0.03126587 -0.089115724 0.021097355 0.09524693 0.050598852 -0.0067020613
-0.025768446 0.040797856 -0.01514054 0.008139079 -0.033282593 0.03541754 0.010580378 0.002982124
0.004825021 0.014191754 -0.04339869 -0.003426415 0.017243782 -0.04440042 -0.030444907 0.020527683
-0.04985606 0.03349791 0.06005571 0.057318587 0.084487945 0.013946669 -0.0038002492 -0.036808707
00000000: cd2a 5cbd fe3a 59bd 318f debc 6ed0 82bc
00000010: 37d9 83bd 4077 343d 6867 e93c a99c 6cbc
00000020: 8878 a83d 7f16 34bd 8ebc 6a3d 3112 843d
00000030: 17f3 343c 48d8 ec3d f1f9 173d 1e01 c13c
00000040: fc15 a93c d4b2 2d3d 4fa2 10bd 6a32 f13b
00000050: d213 853d c7ca ad3c 397a 00bd 4e8a ac3c
00000060: 0dc0 14bd a1ec 91bc ab19 19bc 3b2d 15bd
00000070: 6d22 0f3d 4286 bf3d ae7d 693d f240 6f3d
00000080: 3e24 0abd 0da7 65bd 96d1 043d 4230 083d
00000090: f92b dfbb ab0a 4e3d 5897 103d bf96 04bd
000000a0: 7983 16bd eb78 71bd ebcd 0f3c b48e 083d
000000b0: e422 a3bc 6e4e b2ba 2eda 193c d1b5 57bd
000000c0: 3c74 99bc 0ef7 b23d 42dc 14bd dfef 783b
000000d0: bf2d 3cbc 94a3 bfbc 7e5b 60bd ab44 29bc
000000e0: a6c2 debb 9b11 72bd 5492 893d afbd 4c3d
000000f0: 7636 493d 667e 81bc 3720 003d b9db 113d
00000100: e0d8 423b 1652 37bc 8366 343d 6da6 c23d
00000110: 24ae b63c 0fb9 e6bb ab83 c33b 5342 8f3d
00000120: a589 0e3d 3fe4 3a3d 4771 983d 59af 123d
00000130: a53e 6b3d bb18 ec3c 201e 593d 3608 0f3d
00000140: 3aa0 163d 24a4 a9ba d6ff b13d 69f7 96bc
00000150: 9e35 c23c 2a47 0d3d 423f 02bd fcc0 e7bc
00000160: 554a 8a3c d25d 043d 59a6 25bd e95b 5ebc
00000170: 71e3 863d 10b2 c7ba da0f 603d 373d 66bd
00000180: c05e 15bd fa9b 49bd a410 003d 4e82 b6bd
00000190: 5cd4 ac3c d310 c33d be40 4f3d f79c dbbb
000001a0: 5918 d3bc a71b 273d 0710 78bc c659 053c
000001b0: 5453 08bd fc11 113d 5259 2d3c bd6f 433b
000001c0: 361b 9e3b 8884 683c d3c2 31bd b48d 60bb
000001d0: d542 8d3c 37dd 35bd 9967 f9bc ac29 a83c
000001e0: de35 4cbd 1b35 093d fafc 753d e5c6 6a3d
000001f0: 0408 ad3d 9280 643c 9a0d 79bb bac4 16bd

fc2.weight f4 [10, 128]
0.0747043 -0.17063415 0.11606553 -0.16016182 0.009174814 0.059584793 -0.17302448 0.1070291
0.2674752 -0.115944944 -0.061003376 0.09209016 0.089101434 0.17293455 -0.012679421 -0.17161661
-0.071051426 -0.2194342 -0.21067458 0.13225484 0.02881456 0.04486719 -0.12404638 0.07350226
0.1531978 -0.025924955 -0.22492462 0.041748088 -0.24835438 0.1667459 -0.0010369294 -0.019260716
-0.051724073 0.13313177 -0.15066902 0.20313498 0.09355898 -0.06517282 -0.072995715 0.00020016008
0.12452532 -0.28382954 0.12639587 -0.26179382 -0.029979767 0.13163213 0.08174241 -0.19795242
-0.05262374 -0.31332812 0.08675393 -0.08268251 -0.02767761 0.22305582 0.052996702 0.054066047
-0.23771097 0.238838 0.116157554 -0.08111652 0.1058009 0.14174853 0.04839837 -0.079277284
0.14817598 -0.17370139 -0.13669442 0.16881482 0.16551016 -0.12524387 -0.14747399 -0.1896164
0.100239515 0.04732023 -0.0758153 0.02436364 0.10518095 -0.19628812 -0.1733195 0.26224974
0.1567164 -0.21122268 0.06574445 -0.17083696 -0.09597716 0.22097085 -0.056388266 0.036678065
-0.12550758 -0.043720827 -0.16175431 -0.0858972 -0.16536914 -0.04253295 -0.027555032 -0.03680771
0.084604874 0.013585546 -0.031132556 -0.023514887 0.13455229 0.16258289 0.17749736 0.03906453
-0.22239842 0.099627614 0.23144273 -0.13154359 0.21757889 -0.006946737 0.042444356 0.2320425
-0.10637647 -0.13701959 0.014500467 -0.11913936 -0.11411669 -0.04052424 0.09768509 -0.107082136
0.006824109 0.23063846 -0.08180391 -0.044616666 -0.23890409 -0.29596448 -0.11492463 -0.062248297
-0.09704967 0.07604651 -0.28305772 0.022541547 -0.101795845 0.12689717 -0.12460076 0.038463086
-0.15145274 -0.009911456 -0.08262185 0.14552839 0.0474962 0.04012289 0.22275513 0.2511213
0.004922017 0.12925361 0.14820515 -0.09950287 0.17832501 -0.015592316 -0.3180325 -0.056350403
-0.23283851 -0.1333288 0.08203695 0.0054283766 0.027480872 -0.058034062 -0.052786555 0.21015444
-0.13809131 -0.025505463 0.06567214 -0.12984167 0.08163328 0.014390278 0.10131626 -0.10228161
0.052351862 0.057527754 -0.124794036 0.16301699 0.16493633 0.067364894 0.0018770238 -0.2318654
0.2789389 -0.03583899 -0.3184766 0.031842593 0.13719794 -0.13064629 -0.14214557 -0.07951775
-0.062502615 -0.19530444 -0.26196274 0.026480464 0.14534238 -0.042540483 -0.014727211 -0.15408482
-0.109125964 -0.033270746 0.24438255 -0.24621643 -0.18628693 -0.08475942 0.111213766 0.2180216
-0.14116111 0.09167495 -0.07683478 -0.18863241 -0.0252585 0.089934945 -0.10295239 -0.2077029
-0.16177563 0.2572018 0.090485506 -0.19354117 -0.2731878 -0.20192115 -0.027438788 0.065914884
0.022625623 -0.07272692 -0.008763691 0.031206656 -0.19109322 -0.27231574 -0.12223058 0.009661096
0.052495286 0.24520293 0.026828857 0.018077971 0.050772876 -0.21446037 -0.14674586 -0.06392909
0.25995585 -0.024055166 -0.14157064 -0.048036546 -0.04970498 -0.03445515 0.07637963 -0.3451987
0.13022533 0.030944748 -0.12892947 0.09751161 -0.20219152 0.015919987 -0.067137845 -0.22927277
-0.03478918 -0.009372018 -0.08168038 0.16421603 0.21072266 -0.05435686 -0.10625499 0.040525906
00000000: 91fe 983d b8ba 2ebe c4b3 ed3d 7601 24be
00000010: f651 163c 2f0f 743d 542d 31be 1332 db3d
00000020: 82f2 883e 8b74 edbd adde 79bd c499 bc3d
00000030: d07a b63d c115 313e 59bd 4fbc 44bc 2fbe
00000040: 6983 91bd 5cb3 60be 14bb 57be d06d 073e
00000050: 830c ec3c a9c6 373d 070c febd 5a88 963d
00000060: e2df 1c3e 9260 d4bc a452 66be 0b00 2b3d
00000070: 9c50 7ebe 70bf 2a3e 94e9 87ba a6c8 9dbc
00000080: 9fdc 53bd b253 083e fb48 1abe 9e02 503e
00000090: da9b bf3d 5479 85bd c77e 95bd 10e2 5139
000000a0: 2207 ff3d 1b52 91be eb6d 013e d709 86be
000000b0: 2198 f5bc 93ca 063e 9168 a73d 0ab4 4abe
000000c0: fe8b 57bd 8b6c a0be 0bac b13d 7355 a9bd
000000d0: 28bc e2bc bf68 643e 1213 593d 5c74 5d3d
000000e0: 816a 73be f391 743e 03e4 ed3d 6b20 a6bd
000000f0: 24ae d83d 8726 113e 5f3d 463d 215c a2bd
00000100: 72bb 173e c7de 31be 9ff9 0bbe cbdd 2c3e
00000110: 7f7b 293e ee3f 00be 6c03 17be cd2a 42be
00000120: 604a cd3d dcd2 413d 0d45 9bbd 4296 c73c
00000130: 1c69 d73d c1ff 48be ab7a 31be 9945 863e
00000140: 447a 203e c24a 58be 07a5 863d e2ef 2ebe
00000150: ac8f c4bd 2f46 623e 62f7 66bd bd3b 163d
00000160: 0f85 00be 9c14 33bd eca2 25be dfea afbd
00000170: 8756 29be 0837 2ebd 17bb e1bc aec3 16bd
00000180: 5245 ad3d e995 5e3c b409 ffbc 4ba2 c0bc
00000190: 13c8 093e 217c 263e dec1 353e 2102 203d
000001a0: 69bc 63be 9009 cc3d 53ff 6c3e 5db3 06be
000001b0: 00cd 5e3e 74a1 e3bb 22da 2d3d 8d9c 6d3e
000001c0: e8db d9bd dd4e 0cbe 5e93 6d3c 56ff f3bd
000001d0: 03b6 e9bd bffc 25bd 1f0f c83d e14d dbbd
000001e0: c69c df3b 7d2c 6c3e cf88 a7bd f7bf 36bd
000001f0: 46a3 74be a888 97be 9b5d ebbd 12f8 7ebd
00000200: fac1 c6bd 46be 9b3d f1ec 90be 0da9 b83c
00000210: 577a d0bd 55f1 013e af2e ffbd 788b 1d3d
00000220: 6d16 1bbe a963 22bc a535 a9bd 6505 153e
00000230: 608b 423d e657 243d ec19 643e f992 803e
00000240: df48 a13b 0f5b 043e 17c3 173e 29c8 cbbd
00000250: d59a 363e ea76 7fbc 28d5 a2be aecf 66bd
00000260: 386d 6ebe 5887 08be fd02 a83d 86e0 b13b
00000270: 911f e13c 20b5 6dbd b736 58bd ba32 573e
00000280: cf67 0dbe d5f0 d0bc 1d7f 863d 37f5 04be
00000290: 592f a73d 33c5 6b3c e67e cf3d 0579 d1bd
000002a0: e86e 563d 39a2 6b3d 0494 ffbd eded 263e
000002b0: 12e5 283e 9bf6 893d 7806 f63a 206e 6dbe
000002c0: 14d1 8e3e e8cb 12bd 5d0f a3be 616d 023d
000002d0: 9e7d 0c3e 24c8 05be 9c8e 11be 34da a2bd
000002e0: 5f01 80bd e3fd 47be fb1f 86be 8fed d83c
000002f0: a2d4 143e ee3e 2ebd 664a 71bc 69c8 1dbe
00000300: 6f7d dfbd e846 08bd 6b3f 7a3e 2920 7cbe
00000310: 00c2 3ebe 5996 adbd 0bc4 e33d 0e41 5f3e
00000320: 8a8c 10be 14c0 bb3d 8e5b 9dbd db28 41be
00000330: eaea cebc d02f b83d b4d8 d2bd 12b0 54be
00000340: 83a8 25be f4af 833e 7750 b93d a82f 46be
00000350: 45df 8bbe 6bc4 4ebe 4fc7 e0bc 62fe 863d
00000360: 5f59 b93c daf1 94bd 9695 0fbc 1aa5 ff3c
00000370: f1ad 43be f86c 8bbe 0754 fabd 9349 1e3c
00000380: 4c05 573d 7a16 7b3e 31c8 db3c 4118 943c
00000390: 38f7 4f3d 809b 5bbe 8c44 16be 41ed 82bd
000003a0: ef18 853e 570f c5bc e5f7 10be f8c1 44bd
000003b0: 7397 4bbd d820 0dbd ec6c 9c3d e2bd b0be
000003c0: ca59 053e d77f fd3c 1606 04be 2bb4 c73d
000003d0: 4b0b 4fbe a26a 823c 917f 89bd 7bc6 6abe
000003e0: 197f 0ebd 188d 19bc 0b48 a7bd 3f28 283e
000003f0: aec7 573e 4da5 5ebd 379c d9bd 7efe 253d

fc2.bias f4 [10]
0.036081932 0.030317433 -0.014957685 0.060429353 0.09173381 0.09780156 -0.07054725 0.121654645
-0.039008636 -0.046905745
00000000: a6ca 133d 445c f83c 1411 75bc c584 773d
00000010: f0de bb3d 2f4c c83d 147b 90bd 1226 f93d
00000020: 85c7 1fbd 3d20 40bd
